…
        "\n",
        "# Result\n",
        "loss, acc = model.evaluate(X_test, y_test)\n",
        "print(\"\\nLoss: {}, Acc: {}\".format(loss,acc))\n"
      ],
      "execution_count": 5,
      "outputs": [
        {
          "output_type": "stream",
          "text": [
            "Model: \"sequential\"\n",
            "_________________________________________________________________\n",
            "Layer (type)                 Output Shape              Param #   \n",
            "=================================================================\n",
            "conv_lst_m2d (ConvLSTM2D)    (None, 62, 62, 64)        154624    \n",
            "_________________________________________________________________\n",
            "dropout (Dropout)            (None, 62, 62, 64)        0         \n",
            "_________________________________________________________________\n",
            "batch_normalization (BatchNo (None, 62, 62, 64)        256       \n",
            "_________________________________________________________________\n",
            "max_pooling2d (MaxPooling2D) (None, 31, 31, 64)        0         \n",
            "_________________________________________________________________\n",
            "flatten (Flatten)            (None, 61504)             0         \n",
            "_________________________________________________________________\n",
            "dense (Dense)                (None, 256)               15745280  \n",
            "_________________________________________________________________\n",
            "dropout_1 (Dropout)          (None, 256)               0         \n",
            "_________________________________________________________________\n",
            "dense_1 (Dense)              (None, 256)               65792     \n",
            "_________________________________________________________________\n",
            "dropout_2 (Dropout)          (None, 256)               0         \n",
            "_________________________________________________________________\n",
            "dense_2 (Dense)              (None, 128)               32896     \n",
            "_________________________________________________________________\n",
            "dropout_3 (Dropout)          (None, 128)               0         \n",
            "_________________________________________________________________\n",
            "dense_3 (Dense)              (None, 4)                 516       \n",
            "=================================================================\n",
            "Total params: 15,999,364\n",
            "Trainable params: 15,999,236\n",
            "Non-trainable params: 128\n",
            "_________________________________________________________________\n",
            "Epoch 1/50\n",
            "66/66 [==============================] - 50s 474ms/step - loss: 1.4997 - accuracy: 0.3674 - val_loss: 1.3782 - val_accuracy: 0.3049\n",
…
