…
        "#print('mean check accuracy', np.round(np.mean(scores), 4))\n",
        "\n",
        "# Result\n",
        "loss, acc = model.evaluate(X_test, y_test)\n",
        "print(model.evaluate(X_test, y_test))\n"
      ],
      "execution_count": 27,
      "outputs": [
        {
          "output_type": "stream",
          "text": [
            "Model: \"sequential_7\"\n",
            "_________________________________________________________________\n",
            "Layer (type)                 Output Shape              Param #   \n",
            "=================================================================\n",
            "conv_lst_m2d_7 (ConvLSTM2D)  (None, 62, 62, 64)        154624    \n",
            "_________________________________________________________________\n",
            "dropout_28 (Dropout)         (None, 62, 62, 64)        0         \n",
            "_________________________________________________________________\n",
            "batch_normalization_7 (Batch (None, 62, 62, 64)        256       \n",
            "_________________________________________________________________\n",
            "max_pooling2d_7 (MaxPooling2 (None, 31, 31, 64)        0         \n",
            "_________________________________________________________________\n",
            "flatten_7 (Flatten)          (None, 61504)             0         \n",
            "_________________________________________________________________\n",
            "dense_28 (Dense)             (None, 256)               15745280  \n",
            "_________________________________________________________________\n",
            "dropout_29 (Dropout)         (None, 256)               0         \n",
            "_________________________________________________________________\n",
            "dense_29 (Dense)             (None, 256)               65792     \n",
            "_________________________________________________________________\n",
            "dropout_30 (Dropout)         (None, 256)               0         \n",
            "_________________________________________________________________\n",
            "dense_30 (Dense)             (None, 128)               32896     \n",
            "_________________________________________________________________\n",
            "dropout_31 (Dropout)         (None, 128)               0         \n",
            "_________________________________________________________________\n",
            "dense_31 (Dense)             (None, 4)                 516       \n",
            "=================================================================\n",
            "Total params: 15,999,364\n",
            "Trainable params: 15,999,236\n",
            "Non-trainable params: 128\n",
            "_________________________________________________________________\n",
            "Epoch 1/60\n",
            "60/60 [==============================] - 32s 491ms/step - loss: 9.2493 - accuracy: 0.3175 - val_loss: 1.4872 - val_accuracy: 0.4146\n",
…
